results/model_mnist.pth (torch, 89871 bytes, 8 tensors)

conv1.weight f4 [10, 1, 5, 5]
00000000: a9f7 bfbd fc3e 7b3e 2e75 e03d 05e4 763e
00000010: 96f9 283e 1003 193d 1953 ff3d 539c c43d
00000020: ef09 243e ce0a 113d ca68 5ebd d16d 84bd
00000030: 9821 9abc b280 1cbd 8fe4 483e e91c 0abd
00000040: c790 39be 3305 80be 0d62 22be 836d 09be
00000050: a487 22be 7e49 dcbd aa09 0cbd 6dcc e3bc
00000060: c89a 7abe 7bf9 9d3e 138f 973e b3cb d33e
00000070: 5ce7 a53e f457 67bd c331 2abd c62c 8b3d
00000080: 07d9 bb3e b56c 5f3e ae9e 8f3e 369e bcbd
00000090: 3d7b 1b3e 52f2 80bd 4566 853e f4ba 153e
000000a0: 47e4 82be 5af5 89bd af8a 56be 4098 4e3c
000000b0: e277 4b3c 7b6a 7ebe 6758 c7be 31af 82be
000000c0: 9afd a73b a76b e3bc 453c c63e bb8d c93e
000000d0: 0b44 6d3e 0b12 963d bf37 873e edd9 4e3e
000000e0: a94b a63d 5073 da3e d583 c83e 1f53 ac3e
000000f0: dbfb d9bd ec3f 853d b91e 463e 2a1a 3d3e
00000100: c4a2 c7bd 8153 42be b147 103e 277a 123d
00000110: cfe2 0d3e 2b4e 57bc f8ea b0bc 53f4 bb3c
00000120: 8a4a 9f3d 5bee 5d3d c54e 8fbe 2f7f 053e
00000130: ca90 14be cd63 3ebe 77be a9bc 1294 a2bc
00000140: 4c1b 163e d82d f0bd a76e 53be 2112 163e
00000150: b5c6 123c ac5f 243e 5c18 db3d e1cc fcbd
00000160: d60f 053e acb5 193e b562 92bd abde bebb
00000170: 6287 473e 4774 5f3e 74e9 8c3d 95b1 923c
00000180: a76f 983e cd01 de3d d5cd 923e 0d4b 6b3e
00000190: 3c27 e4bd 13d2 a2bd 7747 ce3e e355 883e
000001a0: b30d 9e3e e032 273e 29b2 a23e e4f6 0d3f
000001b0: 9acd 113f e7b5 5f3d 2b04 383e 153b c93e
000001c0: e775 f53e b0e3 d03e 0e4c 19bc a9cc 92bd
000001d0: 6d4c febc d88c 213e 5a20 a93e de30 4fbd
000001e0: b498 a83c d105 03be 80a7 2bbe 0e1e 0fbd
000001f0: 6b89 c13d 9818 9f3e cda8 343d 5411 793e
00000200: 5baf aa3e 0187 293e a183 853e 2ac5 b33e
00000210: c9d9 b93e e631 483e 2e82 15be 4142 fbbd
00000220: 7e6c 1e3d 2139 1f3e 9bcd d6b9 514c f53d
00000230: 5c6f 8c3d d91c 783d 2887 893e 8085 833e
00000240: 31e6 903e 0988 c53d 3efb 9fbc 5f0e ab3e
00000250: fca1 083e c5fe f63d 6f42 a0be 307d 7cbe
00000260: f4f9 28be 9c46 583d 4817 bb3e ce07 81be
00000270: 2ea7 8bbe f453 d33d 4e6e 923e 8288 b43e
00000280: a922 91be 0c43 f6bc b51c c23d 7ef8 8f3e
00000290: 13d5 943d d670 2abe e38c cf3c ffff bc3e
000002a0: 2a02 c43e 33fe 693e 9772 a03e de56 d03e
000002b0: a4c3 d33e c5bb 7f3e 9f04 06bd 7147 e03d
000002c0: 1fd8 07be 81b2 bbbd 3d2e 76be c809 e9bd
000002d0: 705a 1dbe 8e5c e43d 4868 75be c200 6bbe
000002e0: ea6f 72bd edba c3bd 66c2 773d ec82 abbd
000002f0: e742 d2bd e748 423d 46ca 4b3e c107 a7bd
00000300: d5a1 483e 77ad 8b3e 9b23 ad3e 29c3 7abd
00000310: df12 2e3e e71d a53c c9e1 ba3e bb01 963d
00000320: f75b 513e 2d61 3d3e 5de6 d83d 4098 3abd
00000330: b4ad d9bd 0697 803e 1315 8e3e f209 383e
00000340: eb34 82be a021 a03b a057 d63e dcef e73e
00000350: 199e 853e 45cf 49be ee02 3dbe 1d70 c43e
00000360: 0f8a a23d 7cf4 a83e d4a3 01be fa26 3ebe
00000370: e66b 613e b994 cf3c 5423 b13d 8161 5c3e
00000380: 97bb 3e3e 8d2f 6c3e f441 313d e6cb e1bc
00000390: 17e6 ac3e 72c3 993d 227b 5bbd 6db5 d53d
000003a0: 0de9 a9bd 4e2c 393e f5a5 4a3e be71 3bbe
000003b0: 4c82 46be d3b4 8abd dbca ab3c 07cc a7ba
000003c0: d16d 27be 5d61 b5bd 888f 92be 97b0 71be
000003d0: b284 3abe fa67 bc3d 9410 9d3d 3738 23be
000003e0: 6bfc b5bd 7e22 223c
-0.09373409 0.24535745 0.1095985 0.2411042 0.1650146 0.037356436 0.124670215 0.09600129
0.16019414 0.035410695 -0.054299153 -0.06466258 -0.018814847 -0.03820867 0.19618438 -0.033718977
-0.18121634 -0.25003967 -0.15857716 -0.13420682 -0.15872055 -0.10756205 -0.034188904 -0.027807439
-0.24473107 0.308544 0.29601344 0.41366348 0.32403076 -0.056480363 -0.041551363 0.06795649
0.36689016 0.21818812 0.2805075 -0.09209864 0.1518373 -0.06296219 0.26054588 0.14622098
-0.25564787 -0.0673625 -0.20951341 0.012609541 0.012418719 -0.24845307 -0.38934633 -0.25524285
0.005126667 -0.027761294 0.38717857 0.39365944 0.23170488 0.0732766 0.26409718 0.2020032
0.081199 0.426661 0.3916308 0.33657166 -0.10643741 0.06506333 0.19347657 0.18467012
-0.09747842 -0.18977167 0.14089848 0.035761025 0.13856052 -0.013141195 -0.021596417 0.022943651
0.07777889 0.05418239 -0.27989784 0.13036798 -0.14508358 -0.18592758 -0.020720704 -0.019845996
0.1465885 -0.11727494 -0.2064768 0.14655353 0.008958508 0.16052121 0.106980056 -0.12343765
0.12994322 0.15010709 -0.07147733 -0.005824884 0.19485238 0.218217 0.06880465 0.017906943
0.29772684 0.10840187 0.28672662 0.22977848 -0.11140296 -0.07950225 0.40288898 0.26628026
0.30869827 0.16328001 0.3177655 0.5545485 0.5695435 0.054616835 0.1797034 0.3930289
0.47941515 0.40798712 -0.009356512 -0.07167942 -0.031042302 0.15776384 0.33032495 -0.050583713
0.020580627 -0.12795188 -0.16763115 -0.03494077 0.094500385 0.3107345 0.044106293 0.24323016
0.3333691 0.16555406 0.26076987 0.35111362 0.3629897 0.19550285 -0.14600441 -0.12268496
0.038677685 0.15549137 -0.0004097045 0.11977447 0.068571776 0.060574386 0.2686093 0.2568779
0.28300622 0.09645087 -0.019528981 0.33409402 0.13343042 0.12060312 -0.31300685 -0.2465713
-0.165016 0.052801713 0.365412 -0.25201267 -0.27275985 0.10318747 0.2859978 0.35260397
-0.28346756 -0.030061267 0.09478132 0.28119272 0.07267203 -0.16644606 0.025335735 0.3691406
0.382829 0.22850876 0.31337425 0.40691274 0.413602 0.24973972 -0.03271925 0.10951126
-0.13266037 -0.09164906 -0.24041076 -0.11378819 -0.1536653 0.11150466 -0.23965561 -0.22949508
-0.05918876 -0.09557138 0.060488127 -0.08374581 -0.10266667 0.047432806 0.1990138 -0.08155776
0.19592984 0.2728078 0.33816227 -0.061221275 0.16999386 0.02015586 0.36500385 0.07324549
0.20445238 0.18494101 0.10590813 -0.045555353 -0.10628834 0.25115222 0.27750453 0.17972544
-0.25430998 0.004886821 0.41863728 0.45300186 0.2609718 -0.19707973 -0.18458149 0.38366786
0.07936489 0.32999027 -0.12660152 -0.18569556 0.22013816 0.025339471 0.086493164 0.2152157
0.18626247 0.23065014 0.04327579 -0.027563047 0.33769295 0.07507981 -0.053584225 0.10434995
-0.08296404 0.18083307 0.1978987 -0.18305108 -0.19385642 -0.06772771 0.020970752 -0.0012801894
-0.16350485 -0.08856461 -0.2862513 -0.2360252 -0.18214682 0.091995195 0.07669178 -0.15939413
-0.088860355 0.009895919

conv1.bias f4 [10]
00000000: 78af a63d b592 9339 e5a8 8f3d 5343 c33d
00000010: 7a86 823a d49a be3b cccf 263e ebd3 973e
00000020: 404d 52bd 71e2 313e
0.08138937 0.0002814733 0.07014636 0.095343255 0.000995829 0.005816797 0.16290206 0.29653868
-0.051343203 0.17371537

conv2.weight f4 [20, 10, 5, 5]
00000000: c067 1f3d c10c 3dbc 8b28 8f3d 2f4f 82bc
00000010: 7ee0 873d 0676 f1bc 464d ba3c 68b7 2b3c
00000020: b1d2 833b 477c 0f3d a023 00bd c561 4cbd
00000030: c844 c4bd 3131 b7bc 4250 e7bc 470a 7abc
00000040: 5f30 21bd 77ef 45bb d035 0c3d 3211 0cba
00000050: 266f 4dbd 9925 71bd 3c48 82bd fd0c 193d
00000060: feb7 3dbd 015b 6a3d 2c48 443d 9472 9a3c
00000070: 4b19 ea3d f95e 9f3d d24d 803b dfd9 48bd
00000080: 8546 8bbd 5fbe ffbc 3fb3 80bd 12fc 87bd
00000090: d735 78bd 908b b7bd 9533 60bd 6f73 78bd
000000a0: 2f32 74bd 257b a3bd f402 b6bd a1a0 b23c
000000b0: 0c25 73bd a0f7 a3bc d6ab 96bd ccce babc
000000c0: 17c7 32bd 9825 b4bd 830c b73d 549f 063c
000000d0: 536c 063d b826 9c3d 2711 c73d 7bd9 cf3c
000000e0: bc91 1abd 2d48 99bd 431b dfbc b3b9 933c
000000f0: abb8 9bbb 89e0 e0bd 9a38 b7bd 25ae 823d
00000100: 46ab f6bc 5cb0 56bd 8c33 aabc 3434 733d
00000110: 05ec ed3d dc05 c1bd 1d9a 47bd eb71 84bd
00000120: 77e9 60b9 a7ab c2b9 80d1 58bd 6263 a8ba
00000130: 144e 5abd 2020 c6bd 79b1 98bd 5f04 9c3d
00000140: ea6e adbc 2573 4dbd 138f edbc 3bb3 703c
00000150: d0a9 35bd 2208 66bd b20f f23c c316 843d
00000160: 89ac f83c c972 a8bd f86b 6f3c 26a1 453d
00000170: de19 e13d 24fa e83c 82cc debc 8850 09bb
00000180: 8774 dabc 768e 65bd 4d4b bf3b 2493 93bc
00000190: 7a19 8b3d 9528 913d bdb6 8f3a 6870 10bc
000001a0: a8f2 983b 23ae 16bd d96e dcbd 8dd9 b2bd
000001b0: 796d a5bd 3eae e839 e32b 94bc af63 c9bd
000001c0: 4dbb dfbd 431a e33d 3d5f c33d 4ea4 81bd
000001d0: 08f5 cabd 2251 0dbc e586 303e 500c 95bd
000001e0: 9fb1 0bbe c706 c7bc 5b59 c73d 1c38 e83d
000001f0: 4eb1 24be 8041 5d39 30db 1e3d ef28 813d
00000200: ed61 1a3d b2b7 953c b946 0d3d df03 78bd
00000210: 4e8a 04bd edbe dfbc 8f14 563d 5acf b0bc
00000220: c068 0dbe a63c 7fbc dda1 ff3b 0047 69bd
00000230: 7ed3 9fbd cab9 0abe 5306 59bc b760 fb3c
00000240: 90c2 043c 8d48 7dbd 06c4 81bd bb7d 9c3d
00000250: d405 da3d 143f cdbd 52e0 fb3c d7ce 133d
00000260: 65bf debd 0417 24bd 93e7 58bd 910c 7e3b
00000270: f9b4 bdbd ecab b63b c543 ca3d 13f5 343e
00000280: 5dd7 e43b 186f bebb 4aa2 533d 3e8b 0a3e
00000290: 8169 7f3d d61a 41bd fb35 49ba ecd4 e03d
000002a0: eeb0 ff3d d7f3 acbd 8ead 873c 450f 483c
000002b0: ab97 fa3d bf51 c6bc b3a0 a3bd 72a1 403d
000002c0: 2910 9abd 8e2f 9b3b 7d60 a4bd 516d 383d
000002d0: 950b 713c 7cd0 d53c 44c9 9d3b 1c40 dd3d
000002e0: c2bd b5bc 8432 65bd 11ab 293d eb31 e03d
000002f0: 2040 c93d 9ea6 86bd 2e42 593d c63a 813d
00000300: 26d7 073b f226 a8bd 0f61 383c 90a5 a5bc
00000310: e771 163d 8e9b b5bd 063e f83b 4271 173d
00000320: 6075 a3bc b5e0 2e3d 953d 05bd b79a a3bc
00000330: 4393 52bc 1bec 83bd 0a67 26bd 3d76 cfbd
00000340: 4221 38bd 7341 d63c 7b17 4b3d 21f2 1dbb
00000350: 07d4 24be d3db 8fbb 57bc bc3d b981 4abd
00000360: 99ef 68bd 5b40 afbd fdf4 d43d aa70 043e
00000370: d835 4e3d 8769 b7bd f61f 5cbd cafb 223e
00000380: 58bf cd3d d453 873d a5de 773d dc73 b53c
00000390: 9d3a 8e3d 9c57 36bd 57fd 0f3d 0ae7 2d3d
000003a0: 96e1 303d b0a5 e4bc 3389 34bd b599 b33c
000003b0: 0596 8cbd 469b bcbd de9e 97bd 2d1d 18bd
000003c0: 17b1 cebc bda9 60bd 3282 4bbd 9760 9cbd
000003d0: 3363 923c 0992 0dbd b769 61bd e99f a13c
000003e0: 0d49 76bd f1c4 bf3c 42cf 883b 8328 dbbd
000003f0: da95 b2bd 195b 58bd 25eb f3bc 19a1 37bd
0.038917303 -0.011538685 0.06990155 -0.015906898 0.06634615 -0.029475223 0.022741925 0.010480739
0.004022919 0.03503063 -0.031283975 -0.049897928 -0.095834315 -0.022362323 -0.028236512 -0.015261239
-0.03935277 -0.0030202547 0.034231007 -0.00053431385 -0.050154828 -0.058873747 -0.06361434 0.037365902
-0.046318047 0.057215694 0.04792039 0.018853463 0.114306055 0.077817865 0.003915527 -0.049035903
-0.0680056 -0.031218706 -0.062841885 -0.066398755 -0.06059822 -0.08962166 -0.054736692 -0.06065696
-0.05961817 -0.07982472 -0.08887282 0.02180511 -0.059361503 -0.020015538 -0.07356994 -0.022803687
-0.043646898 -0.08796233 0.08937933 0.008216698 0.03281815 0.076245725 0.097200684 0.025372257
-0.03773664 -0.074844696 -0.02723468 0.018032884 -0.0047522387 -0.10980327 -0.08946343 0.06380872
-0.030110966 -0.052414283 -0.020776533 0.059375957 0.11617283 -0.09424946 -0.04873096 -0.06467041
-0.00021449277 -0.00037130454 -0.05293417 -0.0012847001 -0.053297117 -0.09674096 -0.07455725 0.07618021
-0.021171052 -0.05015864 -0.028998887 0.014691169 -0.0443514 -0.0561601 0.0295485 0.06449654
0.030355709 -0.082250185 0.014613144 0.048249386 0.10991262 0.028439589 -0.027197126 -0.0020952541
-0.026666893 -0.056044064 0.005837834 -0.018014498 0.06791969 0.070878185 0.0010964494 -0.008815862
0.0046675988 -0.036787163 -0.1076333 -0.08732901 -0.08077521 0.0004438031 -0.018087333 -0.09833466
-0.10924397 0.110889934 0.0953965 -0.06330167 -0.09910017 -0.008625301 0.17238958 -0.07277739
-0.13641976 -0.024295224 0.0973384 0.11338827 -0.16083261 0.00021100603 0.038783252 0.063066356
0.037691046 0.01827607 0.034491275 -0.060550567 -0.03235846 -0.02731272 0.0522657 -0.021583248
-0.1380949 -0.015578425 0.007801278 -0.056952477 -0.07804011 -0.13547435 -0.013246137 0.030685766
0.008103028 -0.061836768 -0.06336217 0.07641169 0.10645643 -0.10021797 0.030746613 0.03608593
-0.10876349 -0.040061012 -0.05295522 0.0038764814 -0.092630334 0.005574694 0.09876207 0.17671613
0.006983681 -0.0058115833 0.051668443 0.13529679 0.062356476 -0.047144733 -0.0007675585 0.109781116
0.124849185 -0.08444946 0.01656225 0.012210672 0.122359596 -0.024208901 -0.07989635 0.047028966
-0.075226136 0.0047358936 -0.08026216 0.045026127 0.014712234 0.02610039 0.0048152525 0.108032435
-0.02218521 -0.05595638 0.041422907 0.10947021 0.09826684 -0.065747485 0.05304163 0.06310038
0.0020727604 -0.08210553 0.011253609 -0.020220548 0.03672972 -0.0886756 0.007575753 0.036973245
-0.01995343 0.042694766 -0.032529432 -0.019971235 -0.012852493 -0.06441518 -0.04062561 -0.10129974
-0.044953592 0.026154255 0.04958294 -0.002410062 -0.16096507 -0.0043902188 0.092156105 -0.04944012
-0.056869123 -0.08557197 0.1039829 0.12933603 0.05034432 -0.089556746 -0.053741418 0.15916362
0.100462615 0.06607786 0.060515065 0.022149973 0.06944773 -0.044517145 0.035153713 0.042456664
0.043183886 -0.027911037 -0.044076156 0.02192388 -0.068645515 -0.092093036 -0.074033484 -0.0371372
-0.025230927 -0.054849375 -0.04968471 -0.076356106 0.017869567 -0.034563098 -0.05503246 0.019729571
-0.06012826 0.023409339 0.0041750977 -0.10701086 -0.08719988 -0.052821252 -0.029775212 -0.04483137

conv2.bias f4 [20]
00000000: 7192 223d c25f 95bd 38c7 ba3c d6eb 8abd
00000010: c053 06bd 3071 90bc c471 133c c153 46bd
00000020: 5e3f 88bd 6eb0 1b3d a48f 0fbd 14b5 88bd
00000030: 8885 1d3b 9bbe a23b 4353 25bd 4477 22bb
00000040: f511 75bd 0d31 c6bc 11bb 0fbc ae95 703c
0.03969044 -0.07293655 0.022800073 -0.067832634 -0.032794714 -0.017632097 0.008999292 -0.048419718
-0.06652711 0.038010053 -0.035049096 -0.06675163 0.002403589 0.0049665696 -0.040362608 -0.0024790326
-0.05983158 -0.024193311 -0.008772627 0.014684124

fc1.weight f4 [50, 320]
00000000: 9bd3 f93c 7d33 c4bc 37f2 9c3d e7ee 3b3d
00000010: 72e4 2abd 219b 95ba b58c 073d 182b 82bb
00000020: 7b8e 09bd d184 90bc d2a9 07bd 4916 a2bc
00000030: 00ce 2c3d 3b2f df3d 1798 c53c ef4f 3b3d
00000040: 53b0 03bd 541a 5abd a13d 0b3d 8d36 ec3c
00000050: 6631 d63c fe07 ccbc 69cc ad3d f6ee 593d
00000060: 7406 343d ab14 89bc f411 863d 2484 473d
00000070: dc00 ebbd 7914 a6bd c445 33bc 2901 01bd
00000080: dfc2 103d 304e 5c3c b989 99bc 1d21 033c
00000090: 64c0 5638 53a3 973a 285e 30bd 2336 6cbb
000000a0: ec18 09bd 87a1 f6bc a069 833d 406b 8d3b
000000b0: 4e33 77bc eba0 d33c d901 bf3c a7c1 123d
000000c0: b47c 8fbc 54b5 b13c 8c0c e2bc 8345 1d3d
000000d0: 8760 30bc 0a0e e7bc be41 3abd f6c2 1f3c
000000e0: e9d1 36bd e1c2 c93c 7dab 713d e5ab 1bbd
000000f0: b8d1 87bb 1691 d43d da51 923d 99ba e3bc
00000100: 21f7 5bbd 4be1 41bd 0cdb 73bd 3eff 1fbc
00000110: 1ca5 a7bd 5c62 6abd 7e95 cdbb 45d6 8a3c
00000120: 4d0a 6cbc 1ff8 923c 6811 e1bc 2493 75bd
00000130: 55eb 993c 031b 0f3e 0842 2c3d e982 99bd
00000140: 2790 34bd 6d29 22bc 2a77 3cbd 86ed f03c
00000150: 0a33 b4bb e185 fa3b 1159 a1bb 10da 0bbb
00000160: a664 743d d9f0 a33d a9e3 9f3d 1f93 61bc
00000170: 70ce cebb 6f21 fc3c 5528 83bd aec9 02be
00000180: 327a 343c 30a1 92bc ad8c 673c a222 683d
00000190: a991 72bc fe36 8abd 5047 7a3c f913 033d
000001a0: 1a45 413d 0bf0 9c3c cde8 acbc ee9f 943c
000001b0: c419 443d 0dbd b33c dbcc 883d 7d4a 453c
000001c0: 86f1 e83b 2b6f 53bc 6f3c 5f3c 165a be3d
000001d0: 79da 7d3d dd28 a93d 2e26 643b dcf3 ea3b
000001e0: d318 28bc 72c3 d33c e155 533d 06ea 86bb
000001f0: 3af6 febd 7d1f 57bd 96ca cd3c cab8 8abd
00000200: af83 393d 44f8 2e3d 671f fc3c d75d f43c
00000210: 7920 5e3d 5ebb 07bd 702a a4bc 9499 253d
00000220: 1091 c8ba 83ba 9b3c cda6 9fbc cf78 8fbb
00000230: 8fe7 f6bc 8e6a 25bc 30c6 7b3c c092 453d
00000240: 67b0 ff3b a336 3f3b 3084 a23d 6936 98bc
00000250: f5a2 34bb 1fb8 a3bb 15c1 fd3c 1275 33bc
00000260: 58f1 53bd 5e99 6cbc e2d2 c43a 5160 dbbb
00000270: 4f7b 173c 445b 3c3d f907 c0bc 10f6 e8bb
00000280: b4f2 07bd 6e26 ce3c fc3c 5e3d 1321 95bc
00000290: dc13 4bbd 3f96 3c3d d649 ecbc a49a 173d
000002a0: a693 203d 2520 a1bc 2741 b83a 32f2 c1bc
000002b0: 77b8 413d a3a2 24bd f9bd cb3b 06c1 00bd
000002c0: 7f32 853c 92be e33c a5e6 463d fe7e 0fbd
000002d0: a674 f93c 8fbf 4a3c 78c0 9e3d ec52 dbbc
000002e0: b619 ddbc 9909 2cbb b3e6 0bbd 4f05 98bd
000002f0: 0ba8 a7bc b9b7 c0bb 865e dabc 53d8 5bbd
00000300: a42f 523c de31 453d ee8b 753c ee29 213c
00000310: 8c22 2bbc fbd1 66bd 6de1 cdbc 6389 9bbc
00000320: 4b2d b13c e065 83bb 0249 943c 4ac7 e7bc
00000330: 98f3 56bd bb7a aa3c 6b63 f73c 1248 f13c
00000340: 11c4 613d 2602 f1bc 2408 af3c faa5 333c
00000350: c1ae 33bd 49b1 293d a27c 4a3c b0cd 08bd
00000360: aa35 3bbd 4d35 e93c 8898 213d 7b7f 47ba
00000370: e55b f13c 5870 083d fb8b 68bc 076e edbc
00000380: 0a93 d23c b882 1c3c 54c3 863b 1803 0ebd
00000390: dc3d 3bbd ea3b 723c 5690 233a 7ec5 51bd
000003a0: 9a55 74bb 0eba 473c c5be 31bd bda6 be3c
000003b0: 63ab db3d 3ab6 9f3d 0be7 39bd 1c05 43bd
000003c0: 373f 11bd f88b b13d d4a4 c339 4058 5d3d
000003d0: 5090 85bd 1655 c13c 5648 923d 46a5 9cbd
000003e0: 9379 62bd 5a00 97bc dbd1 39bc b464 8ebd
000003f0: 4996 c0ba 7bc5 d93c 8ef3 a1bd 8131 04bd
0.03049641 -0.023950333 0.07663386 0.045882132 -0.04172177 -0.001141403 0.033093173 -0.0039724223
-0.033583146 -0.017641457 -0.033120938 -0.019786017 0.042188644 0.1089768 0.024120374 0.045730527
-0.032150578 -0.053247765 0.03399432 0.028834606 0.026146602 -0.024906155 0.08486254 0.053206407
0.043951467 -0.016733488 0.06546393 0.048710003 -0.11474773 -0.081093736 -0.010941926 -0.031495247
0.035342094 0.013446376 -0.01874243 0.0080035 5.1200754e-05 0.001156906 -0.043058544 -0.003604301
-0.033471033 -0.03010632 0.06416631 0.0043157637 -0.015087916 0.025833568 0.02331631 0.035829213
-0.017515518 0.02169291 -0.027593873 0.03839637 -0.010765201 -0.028204937 -0.045472853 0.009751072
-0.04463378 0.024629058 0.059001435 -0.03800573 -0.0041448735 0.103792354 0.07144518 -0.027798938
-0.053702477 -0.047333997 -0.05953507 -0.009765444 -0.08185789 -0.05722271 -0.0062739244 0.016947875
-0.014406753 0.017940579 -0.02747412 -0.059954777 0.018788973 0.13975148 0.04205516 -0.07495672
-0.044082787 -0.009897572 -0.04601208 0.029410135 -0.0054992484 0.007645354 -0.0049239476 -0.0021339692
0.0596663 0.080049224 0.078070946 -0.013767987 -0.0063112304 0.030777661 -0.06404177 -0.12772247
0.011015462 -0.017899126 0.014132661 0.056673653 -0.014805236 -0.0674877 0.015275791 0.03200147
0.04718504 0.01915743 -0.021107102 0.018142667 0.047876135 0.021940732 0.06679698 0.012041685
0.00710887 -0.0129049225 0.013625248 0.09294526 0.06197593 0.08259747 0.0034812796 0.0071701836
-0.010259825 0.025850032 0.051595572 -0.0041172532 -0.12449308 -0.052520264 0.025121015 -0.06773527
0.0452916 0.042717233 0.030776693 0.029829903 0.054230187 -0.03313767 -0.020039767 0.040429667
-0.0015302021 0.019009834 -0.019488716 -0.004378415 -0.030139713 -0.010096205 0.015367076 0.048235655
0.007803011 0.0029176853 0.07935369 -0.018580632 -0.002756295 -0.004996314 0.030975858 -0.010953205
-0.051743835 -0.014440862 0.0015016461 -0.0066948314 0.009245708 0.045985475 -0.023441302 -0.007109411
-0.033190444 0.02516481 0.054257378 -0.018204248 -0.049579486 0.046041723 -0.028843801 0.03701271
0.03920331 -0.019668648 0.0014057503 -0.023675058 0.04729506 -0.040194165 0.006217715 -0.03143408
0.01625943 0.027800832 0.048559804 -0.03503322 0.03045113 0.012374773 0.07751554 -0.026772939
-0.026989799 -0.0026250838 -0.03415556 -0.074228875 -0.020465871 -0.0058812764 -0.0266564 -0.0536731
0.012828741 0.04814326 0.014986975 0.009836657 -0.010445248 -0.056352597 -0.025131905 -0.01898641
0.021628043 -0.004009947 0.01810122 -0.02829327 -0.052478403 0.020810476 0.030198773 0.029453311
0.055118624 -0.02941997 0.021366186 0.010964865 -0.04386783 0.041428838 0.012358816 -0.033399284
-0.045705475 0.028467799 0.039452106 -0.00076102436 0.029462764 0.033310264 -0.01419353 -0.02898313
0.02570488 0.00955265 0.0041126404 -0.03467092 -0.04571329 0.014784792 0.0006239464 -0.051213734
-0.0037282468 0.012190355 -0.043394823 0.023272866 0.10726049 0.07798429 -0.045386355 -0.047612295
-0.035460677 0.08669275 0.00037316105 0.05403924 -0.06521666 0.023600142 0.07142703 -0.07648711
-0.055291723 -0.018432785 -0.011341537 -0.06952801 -0.0014693226 0.026583424 -0.079077825 -0.032273773

fc1.bias f4 [50]
00000000: 93c9 853d 7fc7 4d3d 1181 6f3c 3951 28bd
00000010: 27ab c83c 8ad1 a33b 53ff 853d 5a07 4a3d
00000020: 8111 993a 1cc2 0abc baca 033c 2f8b afbc
00000030: 3148 cc3d 7e3f b83c 56e5 743d d7a4 6bbc
00000040: 4ab4 953b 8c91 963d 91c5 083d 2886 c03d
00000050: 2df6 b23d 8b72 b43c afb8 043d 39ff 173c
00000060: bf35 82bc 56d2 7fbc 7dde d5bc 577f 8d3d
00000070: e448 493c 9136 53bd 29ad 9ebc ec61 833d
00000080: fa37 853c 68ff 443b c825 a43d dbe1 a5b9
00000090: 1b45 153c 9c35 b53d b358 643d 1d3a 7dbd
000000a0: 64cf 273c e6bc 233a d6d6 7abd 6ac2 9ebc
000000b0: 905d 773d 8b9e 3a3c 6b40 653d 0730 613c
000000c0: 00b9 3cbc b243 02bc
0.06532588 0.050239082 0.014618174 -0.041093085 0.024495674 0.0049993442 0.0654284 0.049323417
0.001167819 -0.008469131 0.008043939 -0.021428673 0.09974707 0.022491213 0.059789024 -0.014382563
0.0045686113 0.073519796 0.03339154 0.09400588 0.087383606 0.022027275 0.03240269 0.009277158
-0.015894769 -0.015614113 -0.026107067 0.06909054 0.012285445 -0.05156571 -0.019369679 0.064151615
0.016262043 0.003005946 0.08015019 -0.00031639528 0.009110714 0.08848116 0.055748653 -0.061823
0.010242317 0.00062461046 -0.06124004 -0.019379813 0.060391963 0.011390339 0.055969637 0.013744361
-0.011518717 -0.00795071

fc2.weight f4 [10, 50]
00000000: c764 93be 6fd9 5dbe 66b2 09be cf6f 1bbe
00000010: 9cda 013d 89fd 2f3d 4ebc 41be a587 03be
00000020: 80da b13d 1d15 06bd b043 a13c afe1 de3b
00000030: 153c 483e 1cb4 8a3e d091 9fbb bb4d 2fbd
00000040: 34ae 283e 5a03 91be 834d 3cbe fe25 6dbe
00000050: 6105 76be 3c49 49be f819 efbd bc07 8abe
00000060: 0f7e 5b3e 2794 4c3d 46e5 c3bd f8e7 a7bd
00000070: f6bb 263e 53e0 863d 8d87 62be eee9 243e
00000080: 08d4 4b3e b5ec 523d d3fa 09be 192a 80be
00000090: 870f 1abe 03b8 62be ecdc 683e 9596 d3bd
000000a0: e044 f93d 0ff3 a83e 9ce3 31bd 9ecd c2bd
000000b0: b156 123e c795 303d bfec 633e bd88 843e
000000c0: 7892 21be 7d33 fc3d ea76 c13d 6ac8 1a3e
000000d0: 3280 8ebe b5d6 c43d f94d 5fbd a7bd 6bbe
000000e0: b049 f43d a1b3 2a3e 8871 74be 9403 15bc
000000f0: 4250 573e 066d 90be 9ae7 c63d 9faf c8bd
00000100: 31cf 82be f980 9b3d f8d3 4abe 25d2 553e
00000110: 73be 293e 88e9 393e 4ccf 1a3e 52f0 98be
00000120: d332 a2be d0e7 323e 8f3c cdbb 89db aa3e
00000130: 43dc 713e 4dea 0f3e dadc 3cbe d152 c7bd
00000140: cd79 2e3e 8aa2 893d 1e5c 24be 1f10 52be
00000150: f7de dbbb 8913 3c3e bb5f b73d 37d9 293e
00000160: 08b5 02bd 4a63 6ebe a042 1f3e cd2a 3bbe
00000170: 528c 06be 974c 6e3e 1d61 84be 5933 cd3c
00000180: 19b8 33bd 2e65 0abe 5158 4ebd 3092 4cbe
00000190: b0c9 3cbe 4c0f d93d faf5 193e 8754 b43d
000001a0: 8a5d b83d 782d 6a3d cb34 1d3e 3198 273e
000001b0: d0c7 c83d ba74 5c3e 2424 573c bd37 1c3e
000001c0: d878 03bd 0743 b2bc 11b4 2ebe 13a3 15be
000001d0: 5fe0 80bd 3816 383e ec4b d5bd 2864 83be
000001e0: 55c9 44be d5be 99bd 14b5 a2bd cd9c 353e
000001f0: cafd 8fbd 95c0 0bbc e932 24be 342c 1abe
00000200: 63f5 f4bc 2aa9 bcbd 5f8e 5b3e 7a58 fe3d
00000210: 7bd0 08be 3872 39be a4f4 4d3e 25bf 5fbd
00000220: 2a39 313e ccc2 4f3e 8533 eebd b1cf 89bd
00000230: 6a95 853d 8abd 813e 1123 e43d acb7 8fbd
00000240: 0b4b 6dbd 4cdc e13d 749b 233e e7a8 583e
00000250: 29f9 f33d 9e90 d43d 385e c63d 40c9 3abe
00000260: ced0 d23d d8fc ad3d c07b 56bd d602 e33c
00000270: 950e 0cbe 1f9d 5c3e 5b5a 29be a601 4ebd
00000280: 2fab 35bd ef7f 05be 8be9 0bbe 21d9 c93d
00000290: 4177 bcbd ba66 153e 2533 db3d dcdf 573e
000002a0: a142 3a3e 26a0 63bd 971f 19be d5ea 07be
000002b0: 5019 a23d edff 17be f180 113e c477 1bbe
000002c0: ada0 e8bd b91f 3d3e e80c edbd 0a27 053e
000002d0: ac38 263e 0b46 133e b833 153e d3d2 6bbc
000002e0: 9f7b 27be cbb6 03be 2f6d 1f3e 812e 4f3e
000002f0: 3d36 3abe 91e2 8b3e 5a2b b5bc 946d 053d
00000300: 2925 d2bd e25d dcbd 7f9f 1d3e bb65 003e
00000310: 7b60 44bc 8e89 acbc fa9c 2a3e 7b16 ce3d
00000320: cb12 393e aeb9 ea3d b281 4d3e e26f 26be
00000330: 08a8 233e 50da a4be 134c 433e 08cc d53d
00000340: 63d4 023e d34e c5bd e57f 823e 6fcf 3e3e
00000350: 618b 86be 4564 81bd aecd 133e 7b1c 29be
00000360: 31fa 87be fc78 3abe d9bf 5d3e e740 eb3d
00000370: 9205 173e be89 5c3e a02e 7c3d 987d e5bd
00000380: 30a8 dcbd 3880 4dbc 3ba0 813d c373 153e
00000390: 3019 67be 36e8 32be 0b0c 4bbe 886a 74be
000003a0: a18c 8ebd 44e4 7b3e 446b 873e 2ebc 143e
000003b0: b7cd eebd 7a46 dabd 4511 9fbd 3eaa dc3c
000003c0: 46ce 6cbe 1070 803d 24c3 bcbd a5eb 02be
000003d0: 670f 3e3e ec9b 0fbd 3e6a 5b3d 80c7 4fbb
000003e0: 8ad4 4abe 389a a3be 703a f83d b19d 203e
000003f0: 49ab e4bd 5aa8 6fbe 613e 333e a135 adbd
-0.28787825 -0.21664976 -0.1344696 -0.1517937 0.031702623 0.0429664 -0.18919489 -0.12844713
0.08684254 -0.03273498 0.019685596 0.006801806 0.1955417 0.27090538 -0.004869677 -0.04279874
0.16472703 -0.2832287 -0.18388943 -0.23159024 -0.2402549 -0.19656843 -0.11674875 -0.26959026
0.21434806 0.049945977 -0.09565215 -0.081985414 0.16282639 0.06585755 -0.22122021 0.16104862
0.19905102 0.051495273 -0.13474588 -0.25032118 -0.15044986 -0.22140507 0.22740525 -0.103314556
0.1217134 0.3299794 -0.043429956 -0.095118746 0.14290883 0.04311159 0.2225828 0.25885573
-0.1577853 0.12314508 0.09446509 0.15115514 -0.2783218 0.096112646 -0.05451772 -0.23021565
0.11928117 0.16670085 -0.23871434 -0.009095091 0.2102671 -0.28208178 0.09712143 -0.09799122
-0.255487 0.07592959 -0.19807422 0.20880945 0.16576557 0.18155491 0.1511814 -0.2987085
-0.316794 0.17471242 -0.0062633227 0.33370617 0.2361918 0.14054222 -0.18443623 -0.09732593
0.17038651 0.06720455 -0.16050765 -0.20513962 -0.006709929 0.18366827 0.08953806 0.16586767
-0.031910926 -0.23280063 0.15552759 -0.18278046 -0.13139465 0.23271404 -0.25855342 0.025048899
-0.04387674 -0.1351516 -0.050377194 -0.19977641 -0.18436313 0.10598621 0.15035239 0.08805185
0.09002216 0.05717227 0.1535217 0.1636665 0.09803736 0.21528903 0.013131175 0.15255637
-0.032097667 -0.021760477 -0.17060877 -0.14612989 -0.062927954 0.17977226 -0.104148716 -0.2566235
-0.19217427 -0.075071014 -0.07944694 0.17735596 -0.07030828 -0.008529802 -0.16035046 -0.15055925
-0.029902166 -0.09211953 0.21441029 0.12419219 -0.13360779 -0.18109977 0.20112854 -0.05462565
0.17306963 0.20289153 -0.1163092 -0.06729067 0.06522639 0.2533992 0.11139501 -0.070174545
-0.057932895 0.110283464 0.1597727 0.21158181 0.11912758 0.10379146 0.096859396 -0.18240833
0.102937326 0.08495492 -0.05236411 0.027711313 -0.13677438 0.21544312 -0.16538374 -0.05029454
-0.044352707 -0.13037084 -0.13663308 0.09855867 -0.092024334 0.14589968 0.107031144 0.2108149
0.1818948 -0.05557265 -0.14953457 -0.13273175 0.07914984 -0.14843722 0.14209343 -0.15182406
-0.113587715 0.18469132 -0.11574727 0.13003173 0.16232556 0.14382188 0.1457051 -0.014393526
-0.16355751 -0.12862699 0.15568994 0.20232584 -0.18184753 0.27321294 -0.022115398 0.032575205
-0.10260994 -0.10760094 0.15392874 0.12538807 -0.011985893 -0.021061685 0.16661444 0.100628816
0.18073575 0.11461197 0.20069006 -0.16253617 0.15982068 -0.3219781 0.19071989 0.104393065
0.12776332 -0.09634175 0.254882 0.18633817 -0.26278213 -0.06317953 0.1443393 -0.1651477
-0.26558068 -0.18210214 0.21655215 0.114869885 0.14748219 0.2153692 0.061567903 -0.11205596
-0.10774267 -0.012542777 0.0632939 0.14594941 -0.22568202 -0.17471394 -0.19828813 -0.23868763
-0.069604166 0.24598795 0.26449025 0.1452491 -0.11660331 -0.106579736 -0.07766966 0.026936647
-0.23125562 0.06271374 -0.092169076 -0.12785204 0.18560563 -0.035060808 0.053568117 -0.0031704605
-0.1980764 -0.31953597 0.12120521 0.15685154 -0.111654826 -0.23404065 0.17504264 -0.084574945

fc2.bias f4 [10]
00000000: 40dd e43c 42a9 183e 8c4d 93bd a0f8 18be
00000010: a82f babc 6e0d 9f3b 5923 11bd 527a b9bd
00000020: 5126 303e 6afe b43d
0.027937531 0.14908317 -0.07192525 -0.14938593 -0.022727802 0.004853896 -0.0354341 -0.09056534
0.17202117 0.08837588
